…
uts":[]},{"metadata":{"trusted":true},"cell_type":"code","source":"# Without denoising, core features.\ngmodel = getModel()\ngmodel.fit(X_train, y_train,\n          batch_size=24,\n          epochs=20,\n          verbose=1,\n          validation_data=(X_valid, y_valid),\n          callbacks = callbacks)","execution_count":23,"outputs":[{"output_type":"stream","text":"_________________________________________________________________\nLayer (type)                 Output Shape              Param #   \n=================================================================\nconv2d_5 (Conv2D)            (None, 73, 73, 64)        1792      \n_________________________________________________________________\nmax_pooling2d_5 (MaxPooling2 (None, 36, 36, 64)        0         \n_________________________________________________________________\ndropout_7 (Dropout)          (None, 36, 36, 64)        0         \n_________________________________________________________________\nconv2d_6 (Conv2D)            (None, 34, 34, 128)       73856     \n_________________________________________________________________\nmax_pooling2d_6 (MaxPooling2 (None, 17, 17, 128)       0         \n_________________________________________________________________\ndropout_8 (Dropout)          (None, 17, 17, 128)       0         \n_________________________________________________________________\nconv2d_7 (Conv2D)            (None, 15, 15, 128)       147584    \n_________________________________________________________________\nmax_pooling2d_7 (MaxPooling2 (None, 7, 7, 128)         0         \n_________________________________________________________________\ndropout_9 (Dropout)          (None, 7, 7, 128)         0         \n_________________________________________________________________\nconv2d_8 (Conv2D)            (None, 5, 5, 64)          73792     \n_________________________________________________________________\nmax_pooling2d_8 (MaxPooling2 (None, 2, 2, 64)          0         \n_________________________________________________________________\ndropout_10 (Dropout)         (None, 2, 2, 64)          0         \n_________________________________________________________________\nflatten_2 (Flatten)          (None, 256)               0         \n_________________________________________________________________\ndense_4 (Dense)              (None, 512)               131584    \n_________________________________________________________________\nactivation_4 (Activation)    (None, 512)               0         \n_________________________________________________________________\ndropout_11 (Dropout)         (None, 512)               0         \n_________________________________________________________________\ndense_5 (Dense)              (None, 256)               131328    \n_________________________________________________________________\nactivation_5 (Activation)    (None, 256)               0         \n_________________________________________________________________\ndropout_12 (Dropout)         (None, 256)               0         \n_________________________________________________________________\ndense_6 (Dense)              (None, 1)                 257       \n_________________________________________________________________\nactivation_6 (Activation)    (None, 1)                 0         \n=================================================================\nTotal params: 560,193\nTrainable params: 560,193\nNon-trainable params: 0\n_________________________________________________________________\nTrain on 1283 samples, validate on 321 samples\nEpoch 1/20\n1283/1283 [==============================] - 20s 16ms/step - loss: 1.1066 - acc: 0.5269 - val_loss: 0.6044 - val_acc: 0.
…
